…
[2026-02-25 15:10:37] -         lambda1 : 1.0
[2026-02-25 15:10:37] -         lambda2 : 1.0
[2026-02-25 15:10:37] -          in_dim : [79, 1750]
[2026-02-25 15:10:37] -      hidden_dim : 2000
[2026-02-25 15:10:37] -         emb_dim : 30
[2026-02-25 15:10:37] -      activation : leakyrelu
[2026-02-25 15:10:37] -       batchnorm : True
[2026-02-25 15:10:37] -           train : True
[2026-02-25 15:10:37] -        log_name : BDGP_test_20250926_log.txt
[2026-02-25 15:10:37] ===================== SEED 5  ====================
[2026-02-25 15:10:40] Model(
  (autoencoder1): Autoencoder(
    (encoder): Sequential(
      (0): Linear(in_features=79, out_features=2000, bias=True)
      (1): BatchNorm1d(2000, eps=1e-05, momentum=0.1, affine=True, track_running_stats=True)
      (2): LeakyReLU(negative_slope=0.2, inplace=True)
      (3): Linear(in_features=2000, out_features=2000, bias=True)
      (4): BatchNorm1d(2000, eps=1e-05, momentum=0.1, affine=True, track_running_stats=True)
      (5): LeakyReLU(negative_slope=0.2, inplace=True)
      (6): Linear(in_features=2000, out_features=2000, bias=True)
      (7): BatchNorm1d(2000, eps=1e-05, momentum=0.1, affine=True, track_running_stats=True)
      (8): LeakyReLU(negative_slope=0.2, inplace=True)
      (9): Linear(in_features=2000, out_features=30, bias=True)
    )
    (decoder): Sequential(
      (0): Linear(in_features=30, out_features=2000, bias=True)
      (1): BatchNorm1d(2000, eps=1e-05, momentum=0.1, affine=True, track_running_stats=True)
      (2): LeakyReLU(negative_slope=0.2, inplace=True)
      (3): Linear(in_features=2000, out_features=2000, bias=True)
      (4): BatchNorm1d(2000, eps=1e-05, momentum=0.1, affine=True, track_running_stats=True)
      (5): LeakyReLU(negative_slope=0.2, inplace=True)
      (6): Linear(in_features=2000, out_features=2000, bias=True)
      (7): BatchNorm1d(2000, eps=1e-05, momentum=0.1, affine=True, track_running_stats=True)
      (8): LeakyReLU(negative_slope=0.2, inplace=True)
      (9): Linear(in_features=2000, out_features=79, bias=True)
    )
  )
  (autoencoder2): Autoencoder(
    (encoder): Sequential(
      (0): Linear(in_features=1750, out_features=2000, bias=True)
      (1): BatchNorm1d(2000, eps=1e-05, momentum=0.1, affine=True, track_running_stats=True)
      (2): LeakyReLU(negative_slope=0.2, inplace=True)
      (3): Linear(in_features=2000, out_features=2000, bias=True)
      (4): BatchNorm1d(2000, eps=1e-05, momentum=0.1, affine=True, track_running_stats=True)
      (5): LeakyReLU(negative_slope=0.2, inplace=True)
      (6): Linear(in_features=2000, out_features=2000, bias=True)
      (7): BatchNorm1d(2000, eps=1e-05, momentum=0.1, affine=True, track_running_stats=True)
      (8): LeakyReLU(negative_slope=0.2, inplace=True)
      (9): Linear(in_features=2000, out_features=30, bias=True)
    )
    (decoder): Sequential(
      (0): Linear(in_features=30, out_features=2000, bias=True)
      (1): BatchNorm1d(2000, eps=1e-05, momentum=0.1, affine=True, track_running_stats=True)
      (2): LeakyReLU(negative_slope=0.2, inplace=True)
      (3): Linear(in_features=2000, out_features=2000, bias=True)
      (4): BatchNorm1d(2000, eps=1e-05, momentum=0.1, affine=True, track_running_stats=True)
      (5): LeakyReLU(negative_slope=0.2, inplace=True)
      (6): Linear(in_features=2000, out_features=2000, bias=True)
      (7): BatchNorm1d(2000, eps=1e-05, momentum=0.1, affine=True, track_running_stats=True)
      (8): LeakyReLU(negative_slope=0.2, inplace=True)
      (9): Linear(in_features=2000, out_features=1750, bias=True)
    )
  )
  (high_level_projector1): Linear(in_features=30, out_features=30, bias=True)
)
[2026-02-25 15:10:40] Adam (
Parameter Group 0
    amsgrad: False
    betas: (0.9, 0.999)
    capturable: False
    decoupled_weight_decay: False
    differentiable: False
    eps: 1e-08
    foreach: None
    fused: None
    lr: 5e-05
    maximize: False
    weight_decay: 0.01
)
[2026-02-25 15:12:22] Config:
[2026-02-25 15:12:22] -         dataset : BDGP
…
[2026-02-25 16:10:47] -         lambda1 : 1.0
[2026-02-25 16:10:47] -         lambda2 : 1.0
[2026-02-25 16:10:47] -          in_dim : [79, 1750]
[2026-02-25 16:10:47] -      hidden_dim : 2000
[2026-02-25 16:10:47] -         emb_dim : 30
[2026-02-25 16:10:47] -      activation : leakyrelu
[2026-02-25 16:10:47] -       batchnorm : True
[2026-02-25 16:10:47] -           train : True
[2026-02-25 16:10:47] -        log_name : BDGP_test_20250926_log.txt
[2026-02-25 16:10:47] ===================== SEED 5  ====================
[2026-02-25 16:10:49] Model(
  (autoencoder1): Autoencoder(
    (encoder): Sequential(
      (0): Linear(in_features=79, out_features=2000, bias=True)
      (1): BatchNorm1d(2000, eps=1e-05, momentum=0.1, affine=True, track_running_stats=True)
      (2): LeakyReLU(negative_slope=0.2, inplace=True)
      (3): Linear(in_features=2000, out_features=2000, bias=True)
      (4): BatchNorm1d(2000, eps=1e-05, momentum=0.1, affine=True, track_running_stats=True)
      (5): LeakyReLU(negative_slope=0.2, inplace=True)
      (6): Linear(in_features=2000, out_features=2000, bias=True)
      (7): BatchNorm1d(2000, eps=1e-05, momentum=0.1, affine=True, track_running_stats=True)
      (8): LeakyReLU(negative_slope=0.2, inplace=True)
      (9): Linear(in_features=2000, out_features=30, bias=True)
    )
    (decoder): Sequential(
      (0): Linear(in_features=30, out_features=2000, bias=True)
      (1): BatchNorm1d(2000, eps=1e-05, momentum=0.1, affine=True, track_running_stats=True)
      (2): LeakyReLU(negative_slope=0.2, inplace=True)
      (3): Linear(in_features=2000, out_features=2000, bias=True)
      (4): BatchNorm1d(2000, eps=1e-05, momentum=0.1, affine=True, track_running_stats=True)
      (5): LeakyReLU(negative_slope=0.2, inplace=True)
      (6): Linear(in_features=2000, out_features=2000, bias=True)
      (7): BatchNorm1d(2000, eps=1e-05, momentum=0.1, affine=True, track_running_stats=True)
      (8): LeakyReLU(negative_slope=0.2, inplace=True)
      (9): Linear(in_features=2000, out_features=79, bias=True)
    )
  )
  (autoencoder2): Autoencoder(
    (encoder): Sequential(
      (0): Linear(in_features=1750, out_features=2000, bias=True)
      (1): BatchNorm1d(2000, eps=1e-05, momentum=0.1, affine=True, track_running_stats=True)
      (2): LeakyReLU(negative_slope=0.2, inplace=True)
      (3): Linear(in_features=2000, out_features=2000, bias=True)
      (4): BatchNorm1d(2000, eps=1e-05, momentum=0.1, affine=True, track_running_stats=True)
      (5): LeakyReLU(negative_slope=0.2, inplace=True)
      (6): Linear(in_features=2000, out_features=2000, bias=True)
      (7): BatchNorm1d(2000, eps=1e-05, momentum=0.1, affine=True, track_running_stats=True)
      (8): LeakyReLU(negative_slope=0.2, inplace=True)
      (9): Linear(in_features=2000, out_features=30, bias=True)
    )
    (decoder): Sequential(
      (0): Linear(in_features=30, out_features=2000, bias=True)
      (1): BatchNorm1d(2000, eps=1e-05, momentum=0.1, affine=True, track_running_stats=True)
      (2): LeakyReLU(negative_slope=0.2, inplace=True)
      (3): Linear(in_features=2000, out_features=2000, bias=True)
      (4): BatchNorm1d(2000, eps=1e-05, momentum=0.1, affine=True, track_running_stats=True)
      (5): LeakyReLU(negative_slope=0.2, inplace=True)
      (6): Linear(in_features=2000, out_features=2000, bias=True)
      (7): BatchNorm1d(2000, eps=1e-05, momentum=0.1, affine=True, track_running_stats=True)
      (8): LeakyReLU(negative_slope=0.2, inplace=True)
      (9): Linear(in_features=2000, out_features=1750, bias=True)
    )
  )
  (high_level_projector1): Linear(in_features=30, out_features=30, bias=True)
  (uncertainty_head): Sequential(
    (0): Linear(in_features=30, out_features=15, bias=True)
    (1): ReLU()
    (2): Linear(in_features=15, out_features=1, bias=True)
    (3): Softplus(beta=1.0, threshold=20.0)
  )
)
[2026-02-25 16:10:49] Adam (
Parameter Group 0
    amsgrad: False
    betas: (0.9, 0.999)
    capturable: False
    decoupled_weight_decay: False
    differentiable: False
    eps: 1e-08
    foreach: None
    fused: None
    lr: 5e-05
    maximize: False
    weight_decay: 0.01
)
[2026-02-25 16:12:09] Config:
…
